ner_rec_names/ner_bmc/model.bin (torch, 271391 bytes, 2 tensors)

weight f4 [22, 3072]
000000 51 ee 75 bc dc 32 16 bc 61 d2 2a bd d3 e6 08 bd
       -0.015010432 -0.009167399 -0.04170454 -0.033423256
000010 a7 04 03 bd 20 de 04 bd 14 b8 d8 bc d8 cc 7a 3b
       -0.03198686 -0.032438397 -0.026454963 0.003826907
000020 d4 80 0f 3c f7 04 02 bc df d3 44 3c b2 cd fd 3c
       0.008758742 -0.007935754 0.012013405 0.030981872
000030 75 05 87 3c a0 79 4e bc 34 21 ee ba b7 8f 90 bb
       0.016482094 -0.01260224 -0.0018167854 -0.0044116634
000040 a3 e6 af bc e3 71 0a bc 0f 0d 0f bb cb 42 4b bb
       -0.02147228 -0.008450004 -0.0021827852 -0.0031015154
000050 ae 01 5a 3c 6e e5 49 bc 41 bb d4 3c d9 9d c2 bc
       0.0133060645 -0.012322767 0.025968196 -0.023756908
000060 9b fc 96 bc 81 4c 1b bc 43 21 d5 39 d3 59 7a bd
       -0.018430999 -0.009478689 0.00040651308 -0.06112082
000070 f2 e2 f6 bc 9c 99 79 bc 33 55 9e bb 9c 35 06 bb
       -0.030137513 -0.015234377 -0.004831934 -0.002047873
000080 22 33 3f 3b 83 e3 a8 3c 2b 6e a3 3c 70 8a 8d 3c
       0.0029174765 0.020616299 0.019949993 0.017277926
000090 d2 b6 ee bb 23 21 03 bd 1e 30 e4 3c ce f1 a2 bb
       -0.0072849775 -0.032014024 0.027854975 -0.004972673
0000a0 8f ed 38 3a 9b ac a2 bc 9f 01 45 bc 4e 86 93 bb
       0.0007054442 -0.019857695 -0.012024312 -0.0045020944
0000b0 db 9d dc 3c 91 9e 29 bd 4c 62 15 bc 6c 36 a4 3b
       0.02693074 -0.041410986 -0.009117674 0.0050113704
0000c0 0b 28 75 bc 16 35 75 3c 30 0b 63 bb 63 e0 b5 bb
       -0.01496316 0.01496627 -0.003464412 -0.0055504306
0000d0 01 ba e2 3a 5a ef 80 b9 d7 57 6d bc 02 3b ca 3c
       0.0017297865 -0.00024592393 -0.014486275 0.02468634
0000e0 15 ca 30 bb 08 87 91 3c a9 8a ea 3c 52 7d e0 bb
       -0.002697592 0.017764583 0.028630571 -0.006850877
0000f0 ad 1f e3 3b 4b 55 cd 3a a3 f1 8e bb 6c 37 31 bb
       0.0069312663 0.0015665678 -0.0043623014 -0.002704109
000100 b3 a8 c2 bc ac b3 fc 3b 2c 8e be 3b 36 ed 23 3d
       -0.023762083 0.0077118482 0.005815288 0.040021144
000110 14 1d 46 3c ac a2 99 bc fd bb 9a bc e2 05 2f 3c
       0.012091894 -0.018754326 -0.018888468 0.010682555
000120 c6 18 79 bc f9 5e 2d 3c c4 34 d1 bc dc 65 8d bc
       -0.01520366 0.010581725 -0.025537856 -0.017260484
000130 8a 99 33 3b 12 88 af 3c 7d 6b d4 3c ce 83 65 3c
       0.0027404749 0.021427188 0.02593016 0.0140084755
000140 4c 65 68 3c e9 b0 b0 bc 05 8e f3 bb 9d 44 8c 3c
       0.014184307 -0.021568732 -0.0074327015 0.017122561
000150 dd a9 e0 3b 18 56 02 bc f1 9a 04 3d c5 2b 0a bc
       0.006856187 -0.007955097 0.032374326 -0.008433287
000160 93 4d ba 3c c6 38 13 3d a6 d6 59 3b 76 8a 1e bd
       0.022742068 0.035942815 0.0033239513 -0.038706265
000170 d4 cc 37 3b 35 b1 26 bc 18 a6 23 bd 6a c5 6b bc
       0.002804567 -0.010174085 -0.03995332 -0.014390329
000180 31 ea c3 bc cc 2e cb 3c 89 c0 f8 3b 7c f4 17 3d
       -0.023915382 0.024802588 0.0075913114 0.037098393
000190 a4 98 f9 bc 88 40 48 3b e7 dc 30 bb b5 6e 10 3c
       -0.030468293 0.0030556042 -0.0026987137 0.008815457
0001a0 87 e0 80 3c 75 f5 82 bc 77 e3 c3 bb 0b e6 31 3c
       0.015732063 -0.015986184 -0.0059780437 0.010858069
0001b0 9c 78 f3 bc 2e ad 9d bc f5 3c a2 3b 51 bc bb 3a
       -0.029720597 -0.019247618 0.0049511143 0.001432309
0001c0 35 dd 23 bc ea 6d ef bc 34 ef 69 bc 66 31 b9 bb
       -0.01000147 -0.029227216 -0.014278222 -0.0056516407
0001d0 5b 14 26 3c 2b 81 45 bc d1 a1 82 3c 1c 51 b5 ba
       0.010136689 -0.012054722 0.0159463 -0.0013833377
0001e0 8d eb a7 bb ae 7d fa 3a 0f fc 96 3c 4b a8 28 bb
       -0.0051245154 0.0019110942 0.018430738 -0.0025735076
0001f0 fc 1c 46 bc 03 29 2c 3c c7 4e ed bc b5 1a 44 bc
       -0.012091871 0.010507825 -0.028968228 -0.011969258
000200 e7 5d 04 bd 23 16 81 bc 62 88 c6 3b d2 8a 99 3c
       -0.032316115 -0.015757626 0.0060587386 0.018742952
000210 24 07 8e bb 3a 60 a5 3c e6 5b 0a bd d6 5e 17 bc
       -0.0043343473 0.020187486 -0.033779047 -0.009238919
000220 de 49 dd bb 51 bb 26 3b 28 41 15 bb a2 7b f4 bc
       -0.0067531904 0.002544124 -0.0022774432 -0.029844109
000230 0f 21 02 bd b9 02 cf 3b 01 05 28 bb 7d af be bc
       -0.03176981 0.0063174632 -0.0025637748 -0.023277039
000240 4f 40 9e 3c 4a c6 c9 bc 98 5d bc bb 2a 11 37 ba
       0.019317774 -0.024630684 -0.005748462 -0.00069834536
000250 51 36 a7 3c 00 78 99 3c 38 bc 6d bc 49 f4 cc bc
       0.020411642 0.018733978 -0.014510207 -0.025018828
000260 4d a9 1a bc 07 ee 60 bc e6 6f a6 bc 2f 26 90 bc
       -0.0094397785 -0.013728625 -0.02031703 -0.017596332
000270 8b a1 15 3c c3 29 0d 39 9c e9 cb bb 36 8c 46 3b
       0.009132753 0.00013462365 -0.0062229168 0.0030295975
000280 57 a9 a2 bc f5 62 f0 3c 66 9c 32 3c ed 25 15 3c
       -0.019856138 0.029344061 0.010901546 0.0091032805
000290 31 38 06 bd 18 36 b1 bc 22 bb 80 bb ee 4e ae bb
       -0.032768432 -0.02163224 -0.003928558 -0.0053194677
0002a0 a1 9c b0 bb c0 3a 0b bc 86 aa 07 bc 69 18 30 bc
       -0.0053897654 -0.008497894 -0.008280402 -0.010748007
0002b0 ee 0b 7b 39 6b 6e 1c 3c a3 70 73 3b 14 67 e5 3c
       0.0002394167 0.00954781 0.0037145994 0.028003253
0002c0 fc d3 20 bd ac e5 5b 3c 52 6b ca 38 33 d5 10 3d
       -0.039264664 0.013421457 9.6521006e-05 0.035359573
0002d0 8b c2 25 bc 85 a2 0b 3c ab e4 7f bb 1f a4 0c bd
       -0.010117183 0.008522634 -0.003904621 -0.034336206
0002e0 06 48 15 3d 93 0c 06 bc 49 0f 48 3b 4c f3 ba bc
       0.03644564 -0.008181709 0.0030526689 -0.022821091
0002f0 65 7e 80 3b c4 4f b3 3c f9 be 0a 3d 87 ad f1 bc
       0.0039213174 0.021888621 0.033873532 -0.02950169
000300 52 16 e1 3b c7 9b b5 bc ad cb 12 3d 73 08 4b 3c
       0.006869116 -0.022169007 0.03583877 0.012392151
000310 18 4a 9f bc 2d 9b 38 3d 91 1a 7b bd bf b7 64 bd
       -0.01944451 0.045069862 -0.061304633 -0.055839296
000320 fe d9 07 3d 61 f6 44 3c a1 a9 57 3c 0b d3 a7 bc
       0.033166878 0.012021632 0.013163001 -0.020486375
000330 61 59 52 bc 6c c1 11 bc 28 f9 d3 3b 71 e4 21 bb
       -0.012838692 -0.008896213 0.0064689107 -0.0024702812
000340 6c 0b 07 bd 09 8f f7 3b f7 46 cb 3c 33 fa 8d 3b
       -0.032969877 0.007554893 0.024814112 0.0043328046
000350 1c 42 ba 3c c4 b8 c0 3c 39 30 1b 3c 7a 35 bf 3a
       0.022736602 0.023525603 0.009471946 0.0014588081
000360 15 81 43 3b ef f8 33 3b 46 d9 8d bb 78 43 40 bd
       0.0029831578 0.0027461608 -0.0043288795 -0.046939343
000370 0a e4 97 3b ca 5b 6b 3c 59 59 da 3c a6 ce 10 ba
       0.0046353387 0.014365146 0.026653932 -0.0005523957
000380 83 2b ed bc 5b 7f e9 3b 87 3f a4 3c 6d 56 23 bd
       -0.028951412 0.0071257777 0.020049823 -0.039877344
000390 17 7f e1 3b 58 11 27 3c cd cc b9 3c 79 5e 69 3c
       0.0068816054 0.010197006 0.022680664 0.014243715
0003a0 48 b1 fc bc 8b 70 89 3c a0 59 2a bc a7 49 62 3b
       -0.030846253 0.016777297 -0.010397345 0.0034528763
0003b0 f7 df ab 3c 34 57 48 3d 8f dd 8b 3c 17 d7 c5 3a
       0.020980818 0.04891129 0.01707342 0.0015094009
0003c0 2f 2c 92 bb bc a4 63 3c bb 9f 83 bc d5 9c de 3c
       -0.0044608335 0.013894256 -0.016067376 0.027174393
0003d0 18 a1 a0 3c 51 ce 1b 3c 13 ef 93 3d f7 ad 36 3a
       0.019608065 0.009509639 0.07223334 0.0006968672
0003e0 ed 4b b4 3c 6f 62 0a bd 3a 67 63 bb 9e dd db bb
       0.02200886 -0.03378528 -0.003469898 -0.0067097684
0003f0 ac 4c f2 3c 03 c7 77 3c f6 ba 17 bc 4d 54 e2 3b
       0.029577576 0.015123132 -0.009260884 0.006907022

bias f4 [22]
000000 9d a7 29 3b 70 45 a3 39 85 df 23 ba 6c b5 cb b9
       0.0025887259 0.00031141518 -0.00062512635 -0.00038854347
000010 88 ba 8d b9 21 b7 f3 b8 d8 13 cd b9 93 79 7e 39
       -0.00027032592 -0.00011621253 -0.00039115432 0.00024268618
000020 53 1a 14 ba d1 13 5a ba fb e7 7c ba 37 e8 2f ba
       -0.00056496746 -0.0008318993 -0.0009647605 -0.0006710323
000030 3b 6c 3b ba 27 fb 2a ba 83 c0 40 ba a7 13 37 ba
       -0.00071496115 -0.000652241 -0.0007352905 -0.00069838244
000040 a9 fb 6b ba 35 e3 b8 b9 4f 07 5a ba 79 f0 a7 ba
       -0.0009002039 -0.00035264497 -0.0008317129 -0.0012812755
000050 a2 c3 7c ba 03 7f e4 b9
       -0.00096421887 -0.0004358218
