ner_rec_names/ner_nemo/model.bin (torch, 246815 bytes, 2 tensors)

weight f4 [20, 3072]
-0.0030431692 0.01316549 -0.059867334 0.02206595 0.0020893924 0.011550538 -0.021095773 -0.015699621
0.021734368 -0.017502574 -0.014315306 -0.0068330737 0.01523436 0.0011278741 -0.023349442 -0.0164537
-0.029325882 0.0017387407 -0.026105274 0.009174717 -0.0463729 0.02264928 -0.0054949583 0.0035235502
0.03020806 -0.02494188 0.010657827 -0.014820892 0.0076871384 0.00078611425 0.019603936 0.023647558
-0.011655577 0.00472857 -0.020790484 -0.012953725 0.009174401 -0.008813728 -0.0026632543 0.02317726
-0.031716526 0.024154186 -0.010117344 0.012612293 -0.008753846 0.004418257 -0.011614869 0.001499705
-0.013244478 0.0045244824 -0.013527129 -0.004837132 0.014813414 -0.013806409 0.020699225 0.017804781
0.032385606 0.029863693 0.009389193 -0.03307157 -0.03465883 -0.04445554 0.038082853 -0.021847066
0.0036654451 -0.027502205 -0.009983035 -0.02344658 0.013309947 0.014938409 -0.0060039405 -0.0044814437
-0.01200452 0.0050642937 0.0030325248 0.018506479 -0.022290729 0.0021868884 0.010305938 0.018599497
0.008794513 0.004259816 0.02917286 -0.024133952 -0.014312281 -0.0026542933 -0.013254583 -0.0060021565
-0.004273359 0.0044384925 0.019507507 -0.027536822 -0.00039824846 0.022150427 -0.028417472 -0.007540709
4.2957403e-05 -0.005206342 -0.034791227 0.0077083367 -0.0045874165 -0.0064107114 -0.03910961 0.02555017
0.0022198907 -0.004918926 0.0074216486 -0.0057332786 -0.03315652 -0.010778437 -0.02809291 0.048144337
-0.022703735 -0.028897505 0.028721835 -0.009223236 -0.02739902 -0.012872882 -0.011726268 0.02246598
0.018008143 -0.007386309 -0.010073571 -0.0052315732 -0.027337043 0.042373627 0.023238273 0.014329214
-0.004102016 -0.0061737183 0.005521025 -0.009942498 -0.041465625 0.031514805 0.025526652 -0.0056349155
-0.043359615 -0.0028718973 0.024730733 0.0409881 -0.045123056 0.03839247 0.008087715 -0.012083442
-0.0058834055 -0.0042789956 0.044228103 0.00024476988 -0.005344967 0.02435229 -0.005585449 0.01153226
0.0444491 -0.0026166544 0.0027890862 0.021304907 -0.00573196 -0.0066116913 -0.009724432 -0.021765072
0.025764028 -0.02763676 0.011974483 -0.015258936 0.004473477 0.005235332 0.043582365 0.00072323973
-0.015067677 -0.043984186 0.023437988 0.0119542815 -0.017776083 0.00457383 0.06301867 -0.0014074396
-0.0027888902 -0.016506223 -0.00016359476 0.0010316767 -0.019877737 0.021860773 -0.018890142 0.019896243
-0.03950224 -0.02391784 0.0014679139 -0.020547908 0.026171487 0.024633273 -0.025974669 0.020370008
0.02790577 -0.04864645 0.0010813836 0.030570472 0.0069911336 0.0078882165 -0.051904734 0.0038221234
0.011259088 -0.00376969 0.02024052 -0.023391252 0.0280721 -0.0052213413 -0.006354408 0.005752769
-0.006725049 -0.00023096368 0.026370658 -0.0070450353 0.015589215 0.027987633 0.0012374196 0.036598083
-0.03792155 0.0128868865 0.021287385 0.050304748 0.022724772 -0.026963457 -0.010793773 0.013362301
0.03699481 0.04759495 0.007304794 0.008656166 -0.013995611 0.021250088 -0.042625096 -0.01596371
-0.013972033 -0.012103327 0.010108533 0.0008606567 0.011728449 -0.01103651 6.250357e-05 0.010273024
0.00725076 0.0036214667 0.011418337 -0.015515872 -0.00095268554 -0.029622298 0.0050615347 -0.017814735
-0.022214545 -0.007555345 0.025495846 0.05737855 0.0066403737 -0.01789861 0.016444525 -0.0061112
00000000: e86f 47bb 11b4 573c 7337 75bd a7c3 b43c
00000010: 30ee 083b 783e 3d3c 0bd1 acbc 7e9c 80bc
00000020: 460c b23c 8f61 8fbc bf8a 6abc fae7 dfbb
00000030: 8999 793c 2dd5 933a 5447 bfbc e9c9 86bc
00000040: d53c f0bc 75e6 e33a bada d5bc 8d51 163c
00000050: 83f1 3dbd fc8a b93c 0d0f b4bb 5deb 663b
00000060: e576 f73c ea52 ccbc 2b9e 2e3c 54d3 72bc
00000070: 64e4 fb3b 3c13 4e3a 6f98 a03c 86b8 c13c
00000080: 09f7 3ebc 1ff2 9a3b ce50 aabc dc3b 54bc
00000090: 3a50 163c 7467 10bc fe89 2ebb 3dde bd3c
000000a0: 30e9 01bd 00df c53c 37c3 25bc caa3 4e3c
000000b0: 4b6c 0fbc 07c7 903b 4b4c 3ebc c091 c43a
000000c0: 5eff 58bc 1c42 943b e4a0 5dbc ce80 9ebb
000000d0: f6b3 723c 4734 62bc 6c91 a93c 55db 913c
000000e0: c5a6 043d b4a4 f43c 21d5 193c 0e76 07bd
000000f0: 6bf6 0dbd 0317 36bd c4fc 1b3d 9ef8 b2bc
00000100: f737 703b 4e4c e1bc e28f 23bc 0b13 c0bc
00000110: f711 5a3c 3bc0 743c b4bc c4bb 13d9 92bb
00000120: 9bae 44bc 60f2 a53b 53bd 463b e69a 973c
00000130: 0c9b b6bc e651 0f3b 3dda 283c f95d 983c
00000140: dc16 103c ed95 8b3b ecfb ee3c 91b4 c5bc
00000150: 0f7e 6abc a7f3 2dbb c029 59bc bdad c4bb
00000160: 8907 8cbb c670 913b 35ce 9f3c e794 e1bc
00000170: 01cc d0b9 d074 b53c c2cb e8bc 0d18 f7bb
00000180: 292d 3438 f699 aabb 3f81 0ebd 3796 fc3b
00000190: 0a52 96bb f210 d2bb 6631 20bd 974e d13c
000001a0: 967b 113b f12e a1bb 4d31 f33b 3ade bbbb
000001b0: 22cf 07bd 0b98 30bc 1a23 e6bc ff32 453d
000001c0: 2ffd b9bc 76ba ecbc 0e4a eb3c 0e1d 17bc
000001d0: e973 e0bc c8e8 52bc 881f 40bc 930a b83c
000001e0: d085 933c da08 f2bb 9e0b 25bc 9e6d abbb
000001f0: eff1 dfbc f88f 2d3d 315e be3c 14c5 6a3c
00000200: 346a 86bb e74c cabb b7e9 b43b dce5 22bc
00000210: dcd7 29bd ab15 013d 451d d13c 19a5 b8bb
00000220: da99 31bd 7136 3cbb 1b98 ca3c 23e3 273d
00000230: f4d2 38bd 6c41 1d3d 5682 043c a1f9 45bc
00000240: 95c9 c0bb d136 8cbb 8728 353d 7554 8039
00000250: d524 afbb 747e c73c 2406 b7bb cef1 3c3c
00000260: 4210 363d 2d7c 2bbb 1ac9 363b a187 ae3c
00000270: 2ad3 bbbb e3a6 d8bb 3953 1fbc aa4c b2bc
00000280: 150f d33c 7d66 e2bc 9f30 443c 9e00 7abc
00000290: 3f96 923b 268d ab3b 6c83 323d cc97 3d3a
000002a0: 6bde 76bc c328 34bd 0601 c03c e4db 433c
000002b0: 269f 91bc 11e0 953b ef0f 813d d679 b8ba
000002c0: d0c5 36bb 0f38 87bc a28a 2bb9 5339 873a
000002d0: a3d6 a2bc 5d15 b33c 80bf 9abc 72fd a23c
000002e0: 1acd 21bd 59ef c3bc 0467 c03a 1654 a8bc
000002f0: 9665 d63c b8cb c93c d4c8 d4bc 01df a63c
00000300: a49a e43c 8041 47bd 36bd 8d3a ed6e fa3c
00000310: e115 e53b 943d 013c 0f9a 54bd 977c 7a3b
00000320: 0a78 383c e70c 77bb 72cf a53c 039f bfbc
00000330: 76f7 e53c c917 abbb a338 d0bb b981 bc3b
00000340: cd5d dcbb d72e 72b9 4707 d83c 0ada e6bb
00000350: e869 7f3c 5246 e53c e930 a23a dfe7 153d
00000360: a153 1bbd 8523 533c e262 ae3c 5a0c 4e3d
00000370: 4d29 ba3c 78e2 dcbc 5ed8 30bc 8ded 5a3c
00000380: df87 173d ecf2 423d 0e5d ef3b 97d2 0d3c
00000390: d94d 65bc aa14 ae3c a797 2ebd 54c6 82bc
000003a0: f4ea 64bc 084d 46bc 439e 253c b29d 613a
000003b0: ae28 403c 7ad2 34bc 5914 8338 3050 283c
000003c0: c997 ed3b 2156 6d3b fa13 3b3c 4936 7ebc
000003d0: a5bd 79ba 76aa f2bc 3bdb a53b 35f0 91bc
000003e0: 47fb b5bc d492 f7bb aadc d03c c505 6b3d
000003f0: 7e97 d93b 1ba0 92bc abb6 863c 7640 c8bb

bias f4 [20]
0.002748522 0.00037860312 -0.0004687499 -0.000550116 -0.00045299256 -0.00050162815 -0.0010504844 -0.0010686972
-0.00058968645 -0.0012006004 -0.0007504247 -0.000687909 -0.0009429229 -0.0007960675 -0.00084090605 -0.0010345083
-0.00087047863 -0.0008024473 -0.0007150502 -0.00070706586
00000000: 8c20 343b 407f c639 8cc2 f5b9 a935 10ba
00000010: a27f edb9 b27f 03ba 68b0 89ba 8713 8cba
00000020: 3095 1aba 775d 9dba 26b8 44ba cb54 34ba
00000030: 7c2e 77ba 30af 50ba 4070 5cba 5798 87ba
00000040: d530 64ba 545b 52ba 3572 3bba 635a 39ba
